checkpoints/decision_weights_r8.pth (torch, 6433 bytes, 11 tensors)

gnn.conv.bias f4 [8]
00000000: a501 903d 6afa 20bd faca 583e 126b 2bbe
00000010: 6646 1d3e 8400 533e 0597 15bd 1ba0 763e
0.07031564 -0.039301313 0.2117118 -0.16740063 0.15358886 0.20605665 -0.036520977 0.24084513

gnn.conv.nn.0.weight f4 [32, 5]
00000000: 99f0 8dba 9e3a b1b7 9c11 fbb8 7962 09b9
00000010: bf28 4cba 4757 0d3d 8fdb a93d 4769 c73e
00000020: 4998 c93e eadf 973d ea50 97bb 0d7a b1bc
00000030: 0170 6c3c 17d4 d13b ec8a 84bc 1176 c5bb
00000040: 40ed 71bc 588b c13b 5305 14bb 61ee 83bc
00000050: 1862 05bb 4ca3 3cba 28e9 d1ba d91d 8bba
00000060: 1b9b 9eba 833f 5c3d 4391 c3be 100f cebd
00000070: 04e6 b8bd a472 bcbe 71e2 7a3b fd02 113e
00000080: ebeb e4bd e096 f2bd 05ee 0b3e b3b6 e6bb
00000090: 25f1 823b 0f7d 38bc f642 bebc f99b bfba
000000a0: 0c9b fb00 ac35 ee81 fcf1 d581 4065 a981
000000b0: 0035 3881 008b 0081 c053 c501 80da fc81
000000c0: 8cda ea81 e95e 0802 c49b 3581 f857 9700
000000d0: eadd bf81 407f f681 4051 bf81 50ca 6681
000000e0: 605d 0d81 0038 5e81 e801 f401 eef0 0d02
000000f0: 5c17 0281 000d 9e00 3a44 be01 caaf 2a81
00000100: 9ab2 fd81 d43d 2c82 24f6 a701 006c 5201
00000110: 4021 e900 2c80 1501 28b1 2381 581d 7e00
00000120: 219c 0e02 00b5 0b00 008c 3d81 6681 f081
00000130: 40ec 8b81 1384 a201 9c25 a201 5b5a 2982
00000140: 2466 d981 407d 6681 9654 df81 f5f8 0a82
00000150: 40d9 ee01 20de 2f01 5073 3e01 00fe 2100
00000160: 3a9f a281 a023 b200 f0f6 3a81 5dc2 2382
00000170: 60da 2a82 4aca a501 004e 0100 d032 6281
00000180: 2cb5 8c80 4034 bd81 b0fe 9480 5044 c581
00000190: 829e f501 10af 2a02 0044 7500 2fbb 8e01
000001a0: 60fe 1681 801b 1700 b6cb a001 80ad 7401
000001b0: 6c53 b381 e0d9 7800 6277 d101 2052 3782
000001c0: 8ccf 6901 ce0a bf01 c067 2982 d4d4 3a01
000001d0: 24f5 0b02 40c9 9201 38d2 5401 26f2 e981
000001e0: 6349 74bc 1a80 b33e 5c81 46bf 53bf 1fbe
000001f0: a26d 5b3e ebf9 fabe ff8c 6c3e c204 8a3e
00000200: 18d9 763e de6b 653e 4cf5 ec3c d984 b6be
00000210: ea74 99be 794f 6ebf 9c8f 803e 9f6b cebc
00000220: ee34 4a3e 37ca 8ebf 2fad 853e 6398 a3bf
00000230: 5938 e93d b882 46bf e5da d33e 0f2d abbe
00000240: 3f0f abbe 18a5 2c3e 8319 a13c 389c 913a
00000250: 044f b43c ad28 a23d dee7 f8ba 3e66 0e3b
00000260: ef3c 16bb 0dff 25bb c0ef e3ba 01d9 02bf
00000270: 2de5 163e 9608 06bf 1b0c 0b3e 66f6 173e
-0.001082915 -2.112734e-05 -0.00011971893 -0.00013102022 -0.0007788054 0.034507062 0.082938306 0.38947508
0.39373997 0.07415755 -0.0046178 -0.021664644 0.014431001 0.006403457 -0.016179524 -0.0060260375
-0.014766037 0.0059065036 -0.0022586181 -0.016104879 -0.0020352658 -0.0007195964 -0.001601492 -0.0010613754
-0.0012100668 0.053771507 -0.38196763 -0.10061467 -0.09028247 -0.36806214 0.0038281942 0.14161296
-0.1117781 -0.11845183 0.13665016 -0.0070408224 0.003996032 -0.011260285 -0.023225289 -0.0014618627
2.310633e-38 -8.750441e-38 -7.8591073e-38 -6.222608e-38 -3.3833488e-38 -2.3609615e-38 7.2486546e-38 -9.288371e-38
-8.6271624e-38 1.001894e-37 -3.3356206e-38 1.3898717e-38 -7.048075e-38 -9.0548723e-38 -7.0278907e-38 -4.238948e-38
-2.5964603e-38 -4.0815138e-38 8.963418e-38 1.0428187e-37 -2.3893989e-38 1.4514672e-38 6.989288e-38 -3.135019e-38
-9.31938e-38 -1.2654308e-37 6.1699306e-38 3.8648395e-38 2.1409598e-38 2.7458937e-38 -3.0065475e-38 1.1581799e-38
1.0477319e-37 1.075121e-39 -3.4814263e-38 -8.8347754e-38 -5.139954e-38 5.969892e-38 5.956337e-38 -1.244209e-37
-7.9859775e-38 -4.233419e-38 -8.203864e-38 -1.0210086e-37 8.773913e-38 3.230179e-38 3.498022e-38 3.12169e-39
-5.973788e-38 1.6359498e-38 -3.4339974e-38 -1.2031128e-37 -1.2552298e-37 6.09017e-38 1.19817e-40 -4.15461e-38
-1.2921962e-38 -6.950261e-38 -1.3683018e-38 -7.2464395e-38 9.0226234e-38 1.2539868e-37 1.0769147e-38 5.2431157e-38
-2.7733154e-38 2.122082e-39 5.906703e-38 4.4940202e-38 -6.587392e-38 1.1098418e-38 7.694578e-38 -1.3468285e-37
4.294425e-38 7.0177823e-38 -1.2445934e-37 3.43155e-38 1.0282459e-37 5.392071e-38 3.9089075e-38 -8.593815e-38
-0.014910075 0.3505867 -0.77541137 -0.15600328 0.2142854 -0.49018797 0.2310066 0.26956755
0.24106252 0.2240443 0.02892556 -0.3564823 -0.2997201 -0.93090016 0.25109565 -0.025197802
0.19746754 -1.1155461 0.2610869 -1.278088 0.113877006 -0.7754321 0.4137794 -0.33432814
-0.3341007 0.16859853 0.019665485 0.0011109179 0.022010334 0.079179145 -0.001899 0.0021728422
-0.0022924503 -0.0025329024 -0.0017390177 -0.5111237 0.14735861 -0.5235685 0.13578837 0.14840087

gnn.conv.nn.0.bias f4 [32]
00000000: 1125 8eba 33ce 173e 2e51 97bb 0d77 c5bb
00000010: bdec 07bb b3ca a23e b1e2 7a3b 959d e6bb
00000020: 60a7 2681 40bc 3582 c008 9d81 7e35 2b02
00000030: bc41 3581 a9fa 1902 729b ad81 8732 4181
00000040: 28e8 0302 382e 3c80 6c95 0c02 0f80 1d02
00000050: c8f0 4900 c813 6481 c859 2d80 d8f5 6f01
00000060: 6ad9 aabd 701f f13e eb6f 003d f788 9c3d
00000070: c07d 94be fb44 eb3c 2e04 1abb 6c33 4a3e
-0.0010844787 0.14824753 -0.0046178317 -0.006026155 -0.0020740472 0.31795272 0.0038282091 -0.007037828
-3.060947e-38 -1.3351805e-37 -5.768525e-38 1.2578447e-37 -3.3291612e-38 1.1312601e-37 -6.3773216e-38 -3.5484753e-38
9.690986e-38 -5.52671e-39 1.0328458e-37 1.1571289e-37 6.790367e-39 -4.189118e-38 -4.164805e-39 4.4073751e-38
-0.0834225 0.47094297 0.031356733 0.076433115 -0.2900219 0.028719416 -0.0023501026 0.19746178

gnn.conv.lin.weight f4 [8, 4]
00000000: dc3e 2801 80c4 9101 0c33 49bd 40ff fd01
00000010: 56a7 8781 d1b7 1382 0e6f a4be 27b1 3702
00000020: c83d b600 70df 4a81 a597 37be 1a35 8b01
00000030: 4c97 2282 004f 1d82 1340 053e d8e8 7801
00000040: 255a c881 ccfd 9800 1ba6 ecbd 96b1 dc81
00000050: e851 1480 d085 5680 aa3b 89be d477 c401
00000060: 0623 3782 cc4d 1781 40e0 043e 464a 8d81
00000070: 8c78 a581 5a8f a881 4609 4fbe 2e59 9401
3.0901826e-38 5.354655e-38 -0.049120948 9.330379e-38 -4.9831283e-38 -1.0852607e-37 -0.32115978 1.3495557e-37
1.6736223e-38 -3.726185e-38 -0.17928942 5.1136733e-38 -1.19453e-37 -1.155721e-37 0.13012724 4.5717463e-38
-7.359775e-38 1.405004e-38 -0.115551196 -8.107006e-38 -1.866092e-39 -7.945856e-39 -0.26803333 7.2170974e-38
-1.3454768e-37 -2.7790136e-38 0.1297617 -5.1901797e-38 -6.0784404e-38 -6.1919153e-38 -0.20218381 5.449458e-38

gnn.lin.weight f4 [1, 8]
00000000: 65fa d13d 1d58 97bd a081 633e e3d8 443e
00000010: 41d9 e63e 2a06 32be 2a2b 2abf b01d 5bbe
0.10252837 -0.07389853 0.22217417 0.1922336 0.45087627 -0.17385164 -0.66472113 -0.21398044

gnn.norm.weight f4 [8]
00000000: 8976 553f e680 693f c216 943f 2bf7 963f
00000010: 49ae 8a3f 306d 343f 67f6 b03f 188f 8d3f
0.83383995 0.9121231 1.1569445 1.179418 1.0834438 0.70479107 1.3825196 1.1059294

gnn.norm.bias f4 [8]
00000000: 62f6 efbd 1602 d4bc e211 e5bc f59a 463e
00000010: 0b65 1dbe f667 d73d f4cf 7dbb 3fd4 edba
-0.11716916 -0.0258799 -0.027962629 0.19395049 -0.15370576 0.10517876 -0.0038728686 -0.0018144919

q_head.0.weight f4 [32, 1]
00000000: 6750 b3bc d9c5 e23e 17a7 9c3f 461a 37bc
00000010: 5947 6abf b6d5 083d 06e8 3d3f 42ae 8cbc
00000020: 4307 1fbc ff41 a9be f975 1bbf 3ed6 87be
00000030: e574 323f 49b9 e13e af73 39bc 352c 053d
00000040: a4f5 993d ed34 223e 5df9 8bbf dbec b63b
00000050: 11fe aa3f dcfd 75bf fd02 8f3e 4641 b83d
00000060: 46cc 30bc 0d32 83bf df27 dfbe cf94 943e
00000070: e0cb 5e3e 0fb2 90be 8097 d13c 30c1 afbe
-0.021888925 0.4429157 1.2238492 -0.011175698 -0.9151512 0.033406936 0.74182165 -0.017172936
-0.009706321 -0.33058164 -0.60726887 -0.2653064 0.69709617 0.44086674 -0.011319085 0.032512862
0.07517555 0.15840502 -1.0935475 0.0055824346 1.3358785 -0.96090484 0.27931967 0.08996825
-0.01079089 -1.0249649 -0.43585107 0.29019782 0.2175746 -0.28260848 0.025584936 -0.34327078

q_head.0.bias f4 [32]
00000000: fb26 933c c0e3 723f 65d3 ed3e 43cb 203c
00000010: 4926 993e ae26 473d 55b7 4ebd f01b 6a3c
00000020: 1f26 103e 3e40 483f 7513 693b d8c5 2c3e
00000030: eb98 353e 5d7d aebc 2787 203c 5f1c 423d
00000040: e3dc cd3d 072a 3a3f 0153 9b3d 1898 153d
00000050: 3a71 bdbd 0285 dcbe abf6 633f fd5b f43d
00000060: 4eb5 1a3c a8a4 703f b967 e1bd c553 3e3e
00000070: 9537 0b3e c25f 2a3f cac7 60bb f190 383f
0.017962923 0.9487877 0.46450344 0.009814086 0.29912022 0.048620872 -0.050467808 0.014288887
0.14077042 0.78223026 0.0035564576 0.16872346 0.17734115 -0.021300012 0.009797848 0.047390338
0.100518964 0.7272038 0.07584191 0.036522 -0.09250112 -0.43070227 0.8904826 0.11931608
0.0094426405 0.94001245 -0.11006112 0.18586643 0.13595422 0.66552365 -0.003429877 0.72096163

q_head.2.weight f4 [2, 32]
00000000: bac4 3e3d 1059 553e f176 51bd 189f 1a3d
00000010: 896c bfbe 3d61 6b3c 56ac bb3e 6cda 303d
00000020: 9e5e 0f3e 56d6 f23d b26e 9f3e ccf0 6a3d
00000030: af7f 473e 1e1f 343d 6761 193d 7581 983c
00000040: 3f71 cbbc 8624 edbd b541 97bd d504 f73c
00000050: f0e0 093f a6bc 33be 9bc5 2b3e 88b4 dabc
00000060: ba54 183d 87a0 37be 6ac8 3e3e 29d9 c0bd
00000070: 6cdb 0fbe a4aa 33be f52f 023b 9f79 7bbd
00000080: 94af a23c a54a c3bd 472c efbe 120e 933c
00000090: 00a8 db3d 16b8 873d 296b 2e3f 4104 a23c
000000a0: 8e78 6cbd 332d f93d 0391 d13e 7f93 803e
000000b0: 7548 07bf 98ac b93e 0aaf 8e3c 3ada 803d
000000c0: 0830 fd3d 8291 32bd b77a 9c3e e323 253d
000000d0: c79d 453f d296 57bf 769c a2bd 81cf 163e
000000e0: 7bbd 8e3c 4efa ea3d 9346 5bbe 443f b4be
000000f0: 02c9 60be 98ae 3e3d a798 bf3c b22b 3a3e
0.04657433 0.20834756 -0.051138822 0.03774938 -0.37387493 0.014366445 0.3665492 0.043177053
0.14000937 0.118572876 0.3113914 0.057358548 0.19482301 0.04397499 0.037446406 0.018616417
-0.024834273 -0.11579232 -0.073855795 0.030153671 0.5385885 -0.17552432 0.16774599 -0.026697412
0.037190177 -0.1793233 0.1863114 -0.0941642 -0.14048547 -0.17545563 0.001986501 -0.061395284
0.019859113 -0.09535722 -0.46713468 0.017951045 0.10725403 0.066269085 0.68132263 0.019777419
-0.057732157 0.12166824 0.40930948 0.2511253 -0.52844936 0.3626449 0.01741745 0.062916234
0.12362677 -0.0435958 0.30562374 0.040317427 0.77193874 -0.8421451 -0.07939999 0.14727594
0.017424336 0.11473523 -0.2141364 -0.35204518 -0.21951678 0.046553224 0.02338822 0.18180731

q_head.2.bias f4 [2]
00000000: 1047 0f3e 5fc4 3b3e
0.13991952 0.18336628
